gesture_lstm_model.tflite (tflite, 622296 bytes, 10 tensors)

arith.constant3 f4 [29, 32]
000000 bb b7 4f bf c8 9f 3b 3e a9 62 5b 3e 06 19 c4 bd
       -0.81139725 0.1832267 0.21424355 -0.09575085
000010 75 36 c8 3d d5 07 8f 3e eb c0 ef be 13 72 0b 3e
       0.09776012 0.27935663 -0.46826872 0.13617735
000020 26 d8 9d bf c6 cb a9 bd d5 7f 39 bf 6f 61 58 bf
       -1.2331588 -0.0829082 -0.7246068 -0.8452367
000030 ff ca 19 3d 30 05 c8 bd 92 35 04 be 02 a9 07 bf
       0.037547108 -0.097666144 -0.1291106 -0.5299226
000040 5e ce fd 3c 06 d3 93 3d 2e 52 a2 bf a1 69 7d bd
       0.030982193 0.07217984 -1.2681329 -0.061868314
000050 eb 00 85 3e c1 0b 2c bc 31 f3 94 be a3 b8 5b bc
       0.25977263 -0.010500849 -0.2909179 -0.01341072
000060 94 26 29 3e 3f 38 ee bc af 36 21 3e ee 36 dc bd
       0.16518623 -0.029079555 0.15743516 -0.107526645
000070 bc a4 86 3e 57 63 98 3e 3b f4 96 bc 12 27 81 bf
       0.26297557 0.2976329 -0.018427005 -1.0090048
000080 6f 44 ff 3e b2 60 8e bd f0 19 11 bf db 7b c7 3d
       0.49856898 -0.06952037 -0.566802 0.097404204
000090 08 e0 1a 3e 2f c7 21 3e 33 44 da bf 82 61 7f bd
       0.15124524 0.15798639 -1.7052063 -0.06234885
0000a0 0b 4b 0d bf 8d 6d b9 3d ed 37 d2 bd 69 71 a5 3e
       -0.5519263 0.09054098 -0.10264573 0.32313088
0000b0 2e 9f 60 3e ed 4e c9 3d c2 a8 0e bf 00 5d b3 3e
       0.21935722 0.09829507 -0.55726254 0.3503189
0000c0 8b 85 28 bf c9 ce 6d 3e 35 8e ff be d8 38 dc be
       -0.6582877 0.23223414 -0.49913183 -0.43012118
0000d0 ee 92 dc be 03 b6 da 3d 9b ad ad bd d7 d4 03 bf
       -0.43080848 0.10679247 -0.08480378 -0.5149664
0000e0 59 6f 20 be 87 15 d5 3e 39 1d 3d be 03 6f ac be
       -0.15667476 0.41617987 -0.18468179 -0.33678445
0000f0 33 11 b5 bd 9c fb 45 3e 51 24 aa 3d 20 b1 ad be
       -0.08841171 0.19334263 0.08307708 -0.33924198
000100 83 52 e0 3e f2 f5 34 3b 27 79 78 bf 02 70 06 c0
       0.4381295 0.0027612415 -0.97059864 -2.1005864
000110 d5 bc da 3d 96 7c af bf 94 3a 47 3b 44 ab 0f bf
       0.10680548 -1.3709896 0.0030399906 -0.56120706
000120 6d 77 ec bf ef 11 91 3e bd 5a c4 bf a0 92 aa bf
       -1.8473946 0.28333995 -1.5340191 -1.3325996
000130 35 68 a0 3e 47 dd e1 3d 47 a7 97 3e 12 14 bb be
       0.31329504 0.110285334 0.2961981 -0.3653875
000140 7e d6 84 3e 30 e6 7d bd a9 88 af 3e 0d fc cf bb
       0.25944895 -0.061987102 0.3428395 -0.0063471855
000150 57 56 62 bf 57 da f7 bf 11 33 50 bf f2 bc 82 be
       -0.88412994 -1.9363507 -0.8132792 -0.2553478
000160 7b 36 d3 3e 67 0b a2 bf 4a 4c ac bf 45 bc 07 bf
       0.41252503 -1.265973 -1.3460782 -0.5302165
000170 ce 61 4c 3c 37 31 6f 3e b6 b9 9b bf 0a f6 a2 3e
       0.01247449 0.23358618 -1.216605 0.31828338
000180 08 9e 85 bf 20 b7 2f bc 51 de 70 c0 f1 b2 ae bd
       -1.0438852 -0.010724813 -3.763569 -0.08530224
000190 c6 42 31 c0 c9 15 30 bf 74 d9 85 bf 05 95 94 bf
       -2.7697005 -0.6878324 -1.0456986 -1.1607977
0001a0 d5 06 1d bf 0c 1a 88 bd 25 a7 29 be a4 33 54 3d
       -0.6133855 -0.06645593 -0.16567667 0.05180706
0001b0 c8 b4 1b c0 e7 5d 00 3d 8c 25 f4 bf 00 7e 8c be
       -2.432909 0.031339552 -1.9073958 -0.2743988
0001c0 9e 3c 5a bd 97 bd ac 3c 80 ba 2d bf 87 ae c2 bd
       -0.053280465 0.021086497 -0.678627 -0.09505945
0001d0 60 a1 4e be 2a d0 26 3e 1f 36 d0 bd c2 de 40 bd
       -0.20178747 0.16290346 -0.10166573 -0.04708744
0001e0 e9 8b dc be 84 77 b9 bf f3 e0 29 3e 7e 9b 65 3d
       -0.43075493 -1.4489598 0.16589718 0.056056492
0001f0 3b a9 bf 3d 72 22 23 bd a1 8d 74 3e 11 56 2f c0
       0.0935845 -0.03982777 0.23882152 -2.739628
000200 60 e6 a1 be b8 ed a7 bf 02 a1 b4 3e ae a6 83 3e
       -0.31621075 -1.3119421 0.3527909 0.25713104
000210 28 44 99 3e f2 27 63 3e 4c 8e 83 bf 9c 63 a4 bd
       0.29934812 0.22183207 -1.02778 -0.080268115
000220 a3 8c 68 3e a1 ff 1a be 12 97 d8 bf 0c 52 a9 3e
       0.22709899 -0.15136577 -1.6921103 0.3307041
000230 09 3b 36 3e 3d c7 bf bf 00 af 22 c0 81 0c 1f 3e
       0.17795958 -1.4982678 -2.5419312 0.15532114
000240 ac c1 e8 bf e3 a2 db bf 3d 8e 0e 3e fd 47 fa be
       -1.8184104 -1.7159084 0.13921447 -0.48883048
000250 6d 41 5f 3e c8 84 6d 3e 55 21 8f 3e c0 0e 88 bb
       0.21802302 0.23195183 0.27955118 -0.004152149
000260 55 2a 18 bf 3e 28 4d bf 68 4e 26 bf ed 66 be be
       -0.59439594 -0.8013953 -0.6496339 -0.371879
000270 46 07 8e bf 2a 5d b7 bf fa 3c a2 bf 78 7c de 3e
       -1.109597 -1.4325306 -1.2674859 0.43454337
000280 36 61 07 bf 28 c8 03 c0 57 8b 88 bf d3 c3 c6 bf
       -0.5288271 -2.0590916 -1.0667523 -1.5528511
000290 d9 4d 0c 3f e5 5f fb bf 90 40 af 3e 71 96 be 3e
       0.54806286 -1.963864 0.34228945 0.37224153
0002a0 f2 91 5a be cc e5 f5 bf 8b 27 93 bf 8d 77 ae bf
       -0.21344736 -1.9210753 -1.1496443 -1.3630234
0002b0 b9 4e 84 3e b4 35 9c bf a0 61 d9 3e 35 eb 98 3e
       0.2584131 -1.2203889 0.42457294 0.2986695
0002c0 2d ec ac 3e d7 0a 32 bc cd f5 a2 bf 79 43 92 3e
       0.33773938 -0.010866842 -1.2731262 0.28567103
0002d0 75 81 a2 be 89 8c 5f 3d 7f 0f 93 bf 96 d7 c3 3e
       -0.31739393 0.054577384 -1.1489104 0.38250417
0002e0 cb bb 48 bf 9d 7c 3b bf 3e a1 de bf 4a ad 85 bf
       -0.7841155 -0.7323702 -1.7392957 -1.0443509
0002f0 77 fe 38 bf 37 36 de bf 1c f8 7d bf df 00 59 bf
       -0.7226328 -1.7360295 -0.9920671 -0.84766954
000300 83 d8 c9 be d6 61 63 3e b6 f3 c1 3d 43 c0 75 bf
       -0.39422998 0.2220529 0.09470312 -0.95996493
000310 0a 37 91 bf 3f f4 95 3e 22 c2 07 c0 a4 98 af 3e
       -1.1344922 0.29287907 -2.121224 0.34296143
000320 c4 fc c9 bf 9e 39 92 3e ef f0 c6 bf 0c ef 8e bf
       -1.5780263 0.28559583 -1.5542277 -1.1166701
000330 27 12 07 c0 e8 c8 9b bf ff f6 5e 3e 1c a9 f4 be
       -2.110483 -1.2170687 0.21773909 -0.4778527
000340 6d 89 7c bf e9 c1 91 3e 7e 7a 8a 3e 38 ac af bd
       -0.98647195 0.28468254 0.2704658 -0.0857777
000350 76 81 af bf 74 56 88 bf a9 b9 cf bf 31 ae 80 3e
       -1.3711383 -1.0651383 -1.6228534 0.25132897
000360 0a ad 99 3e 48 18 a7 be 76 c9 a6 3e 4a c5 c9 bf
       0.3001483 -0.32635713 0.32575577 -1.5763333
000370 d5 51 af 3e bf 92 a9 3e a2 45 07 bf 40 51 d4 bd
       0.3424212 0.3311977 -0.52840626 -0.1036706
000380 24 0a aa 3d 7d a0 0b be 85 45 4b be 42 af bb 3e
       0.083027154 -0.1363544 -0.19850738 0.3665715
000390 21 7e a9 3e ea 5c 02 3e 1c 86 60 bf 2d 85 c8 be
       0.3310404 0.12730756 -0.87704635 -0.39164105
0003a0 f1 5c d7 be bb 8b 4f 3e f9 cb 8a bf ec 27 30 bf
       -0.42063096 0.20268147 -1.0843498 -0.68810916
0003b0 1b 32 bb 3e a8 55 35 bd f4 1b 87 3e cd f5 a9 bf
       0.36561665 -0.04427114 0.26388514 -1.3278137
0003c0 ee 1e a9 3e c4 c1 fb bf c5 52 49 bf 66 87 8b bf
       0.3303141 -1.9668508 -0.7864192 -1.0900695
0003d0 d3 30 bd 3e 1c 5d 8d bf 49 3a a9 3e c5 e1 cb be
       0.36951312 -1.104404 0.3305228 -0.39820686
0003e0 22 a0 ad bf 33 08 e5 3d ed 38 93 bf ff 1a 99 3d
       -1.3564494 0.111832045 -1.1501747 0.07475852
0003f0 0c ae 30 be b8 31 c3 bd d4 a3 a4 be 1c a0 94 3e
       -0.17253894 -0.095309675 -0.3215624 0.29028404

arith.constant4 f4 [32, 64]
000000 16 2e 3c 3e ea 52 08 3e a3 ed 23 3f 14 45 3d bf
       0.18376955 0.13312879 0.6403448 -0.7393353
000010 51 1b d1 3d da cd 2e 3f 7c f7 8b 3e e6 68 53 3e
       0.10210288 0.68282855 0.27337253 0.20645484
000020 e1 c1 71 3e d0 e1 20 3f b4 3e 32 3f 16 9a 0c bf
       0.23609115 0.6284456 0.6962693 -0.54922616
000030 6e a2 0a 3f 1b 8b 00 3d a3 86 b3 bc ce 70 d7 3c
       0.541541 0.03138266 -0.021914786 0.026298907
000040 59 ba 75 be b5 d0 1a bf 72 b9 b6 3d 40 bb 97 bc
       -0.23996867 -0.6047471 0.0892209 -0.018521905
000050 54 ad 92 3c cc 35 e6 bc ba 51 7c 3e 32 8a c2 3e
       0.017904915 -0.028101824 0.24640551 0.3799606
000060 1f 56 e5 3e e7 40 34 bf af c4 2a bf ec 35 6a 3e
       0.44792268 -0.70411533 -0.66706365 0.22872132
000070 17 24 4a bf de 68 e1 be ce 9f 23 be 27 1f 18 bf
       -0.7896132 -0.4402532 -0.1597893 -0.59422535
000080 12 d2 b9 3e 3e cf e8 3e a9 1b 12 3f 90 3b ac 3e
       0.36293083 0.45470613 0.57073456 0.33639193
000090 3b 65 af 3e 4c b8 02 3f 96 a1 62 be 00 5e 8f 3e
       0.3425692 0.51062465 -0.22131953 0.28001404
0000a0 0f 69 55 be 00 99 e7 be 30 45 6f 3d 19 18 71 be
       -0.20840858 -0.45233917 0.05841559 -0.23544349
0000b0 f8 32 16 be e0 0e 03 3e d0 7a 03 bf 67 5e 61 be
       -0.1466788 0.12798643 -0.5135927 -0.22008668
0000c0 3b 18 df 3e ff 34 ad 3d 92 2b ee 3e 1d 4e c8 be
       0.43573174 0.08457374 0.46517617 -0.39122096
0000d0 d8 a5 c4 be 43 32 bf 3e ef 3b 44 3f 2c a4 d0 be
       -0.3840778 0.37343034 0.7665395 -0.40750253
0000e0 b0 f7 f2 be 8f df 0b 3e 10 a8 d0 be 68 3a 1e 3d
       -0.47454596 0.136595 -0.40753222 0.03862992
0000f0 5c 08 1e 3f 53 7e 36 3f 0a 0c 87 3e 49 c9 df be
       0.61731505 0.71286505 0.26376373 -0.43708256
000100 5b 0a 09 bf a9 94 b7 be 6a 21 86 bd f7 cf 67 be
       -0.53531426 -0.35855606 -0.06549342 -0.22637926
000110 83 75 43 3e 1f dd be 3e 67 8d 3f bd 55 b2 0c bf
       0.19087796 0.37278077 -0.04676571 -0.54959613
000120 5f c2 26 3f 21 ca b4 be d3 80 8e 3d 9c eb df 3d
       0.65140337 -0.35310462 0.06958165 0.10933611
000130 2e f8 85 3e 4d d5 80 3e 0c a3 02 3f 83 97 6f 3d
       0.2616591 0.25162736 0.5103004 0.058494102
000140 3a 5d 16 be 41 bb cf 3e b1 73 ab 3e c8 1a f4 3e
       -0.14684 0.4057255 0.33486703 0.47676682
000150 95 6f 99 3d 0a 3f 3e 3f 16 1e b1 3d 24 70 6c 3e
       0.07491986 0.7431494 0.086483166 0.23089653
000160 28 17 8e 3c 29 61 37 3f b6 6d d7 bc 9f ca dd 3d
       0.017345026 0.7163263 -0.026297431 0.108296625
000170 30 b6 f9 3d ea 3a 88 bd 3b 83 c2 bd 19 76 a4 bd
       0.12192953 -0.06651862 -0.094976865 -0.08030338
000180 37 88 99 3e d3 da a5 be 7e 63 c0 3d 9a 2f e6 3e
       0.29986736 -0.32393512 0.09393977 0.44958192
000190 bf 55 2a bb c2 06 36 be 3f a5 4f bf 71 c2 86 3f
       -0.002599105 -0.17776015 -0.8111152 1.0528089
0001a0 9b bd 36 bf fe fb d0 3e fd 33 a7 bc 90 58 2a 3e
       -0.71383065 0.40817255 -0.020410532 0.16635346
0001b0 37 2e b1 be 3e f6 20 3f de 5d 53 bf da 83 83 be
       -0.34605572 0.62875736 -0.82565105 -0.25686532
0001c0 38 31 35 3f 11 9c e4 be ec 68 e0 be 2a 2e 94 be
       0.70778227 -0.4465032 -0.4383005 -0.2894147
0001d0 05 3f a0 3e cc 28 d9 be ee 43 eb 3e c2 13 a9 3b
       0.3129808 -0.42413938 0.45950264 0.005159826
0001e0 60 ee 2d be 4b a0 98 be 81 77 9b bd 43 0f d8 3e
       -0.16985464 -0.29809794 -0.07591153 0.42199144
0001f0 ed 69 a3 3e 6b a1 43 bd 58 40 67 3e 59 8f b6 be
       0.31916752 -0.047761362 0.22583139 -0.3565624
000200 79 69 e4 3e cf 43 11 bd 91 26 f7 bd 45 b8 c9 3e
       0.4461172 -0.035465058 -0.12067903 0.393984
000210 ba aa 38 3f 97 ea 38 bf 7f 78 be bd 36 92 75 3e
       0.7213551 -0.72232956 -0.093003266 0.23981556
000220 75 28 d4 be be 5b c6 3e b0 0c 46 3e d6 22 a3 3e
       -0.41437116 0.3874187 0.19340777 0.31862515
000230 72 1c ff 3e 1d be 25 bd 34 da 8c bf bf f7 5f be
       0.4982639 -0.04046451 -1.100409 -0.21871851
000240 b7 b2 8b 3e 74 5c 69 bf fc 70 26 3f 67 d4 f6 be
       0.27284786 -0.911567 0.6501615 -0.48208925
000250 88 ca 1a bf b3 2f d7 be 70 0e 0e 3e 5b f2 af 3e
       -0.6046529 -0.4202858 0.13872695 0.3436459
000260 39 25 69 3e 64 2e c3 3e f5 f3 a9 3d 60 b6 ff be
       0.22768106 0.3812133 0.08298484 -0.4994383
000270 21 d2 09 3f 96 aa 80 3e ef 56 0b 3f 94 89 56 3f
       0.53836256 0.25130147 0.54429525 0.8380368
000280 67 4a 16 be d0 87 11 3e a1 eb 96 be e5 77 5a 3c
       -0.1467682 0.14211965 -0.29476646 0.013334249
000290 ea 3b 51 3e 46 f8 26 bc c7 46 f8 3d b9 63 28 bf
       0.20433012 -0.010191029 0.12122875 -0.65777165
0002a0 f1 49 a5 bc 1e 97 d2 38 3c bd 88 3f 8f 72 71 3f
       -0.02017686 0.00010041728 1.068275 0.9431543
0002b0 8f a3 11 bf 92 fc 5a bf 81 32 bc 3e d6 0a 15 3e
       -0.56890196 -0.8554164 0.3675728 0.14554915
0002c0 9e b0 cf 3d 81 cc 0a 3e d8 52 a4 3e c5 72 72 3d
       0.10141109 0.13554575 0.32094455 0.059191484
0002d0 cd 58 12 be 81 27 07 3f a7 0d b7 3d 5c 6c 37 be
       -0.14291687 0.52794653 0.08938151 -0.1791243
0002e0 9d dd 06 3f 6a d7 22 3e e8 22 45 be 16 9c dc be
       0.52681905 0.15902486 -0.19251597 -0.43087834
0002f0 c0 51 67 bd 31 cd a3 3e bd 3a f7 be 9d 82 2a be
       -0.056474447 0.31992486 -0.48287 -0.16651388
000300 0d 0f 6a 3e 33 19 85 3d 41 b9 bc bd e8 75 32 bf
       0.22857304 0.06498947 -0.09215022 -0.6971116
000310 d0 bc be be b6 d7 81 be 64 47 2a bd ac 5d 10 3f
       -0.37253428 -0.25359887 -0.04157199 0.5639293
000320 ec 24 1a be ff 6e a9 3e 8f 63 98 3c 8d 97 55 be
       -0.15053147 0.33092496 0.01860216 -0.20858593
000330 1e 6c 32 bc 5f d8 1a ba 83 3f af be c5 8c 2e bf
       -0.010890035 -0.00059068756 -0.34228143 -0.6818355
000340 46 14 83 be 99 95 0b 3f c0 ad e4 3e 42 ce d9 bd
       -0.25601405 0.5452514 0.4466381 -0.10635044
000350 af 71 a2 3d 31 a7 da 3e f0 fc bc 3e 34 6b 4d be
       0.0793184 0.42705682 0.36911726 -0.20060426
000360 7c 54 f7 3d 1a a9 d1 3d 25 bd 7c 3d d5 07 81 be
       0.12076661 0.10237332 0.06170382 -0.25201288
000370 9e 8f fc be d5 eb ee 3e b4 cf e8 be 19 ea 8e be
       -0.4932832 0.466643 -0.45470965 -0.27912977
000380 23 11 01 be 55 e7 d3 be dc 65 48 be 32 0d 2a 3e
       -0.12604193 -0.4138743 -0.19570106 0.16606596
000390 9a 84 59 3e 76 89 81 be 4d 87 29 bc 85 9b 10 3f
       0.2124199 -0.25300187 -0.0103472 0.56487304
0003a0 b2 39 0c be 92 38 65 3f 17 22 b6 be 41 38 ab be
       -0.13693884 0.89539444 -0.35572883 -0.33441356
0003b0 46 2b d5 3e c7 67 be be c2 9e da be 97 cb 3f bf
       0.41634578 -0.3718855 -0.42699248 -0.7492003
0003c0 d0 8b 98 3e 8f 8d 63 3e b6 31 33 be 06 00 37 bf
       0.29794168 0.22221969 -0.17499432 -0.7148441
0003d0 7d f8 8a 3e ae bf 49 3e da c8 a1 3e 6a 5b 05 bf
       0.27142707 0.19702026 0.3159855 -0.5209261
0003e0 b4 5a bb 3e f0 49 88 3e ac fe da bd 09 28 27 3e
       0.36592638 0.2661891 -0.10693106 0.16323866
0003f0 19 96 58 bf d6 0c 28 3e 09 4c 8a 3c 66 0f 2d bc
       -0.8460403 0.16411147 0.01688196 -0.010562753

arith.constant5 f4 [32]
000000 8c 40 8d be 17 1f 3c 3e a4 ee 1c 3e f7 59 1b 3e
       -0.27588308 0.18371235 0.15325409 0.15171038
000010 34 be 59 3e 0a f3 48 3e b6 ee 09 3e 47 23 91 3d
       0.21263963 0.19623962 0.13469967 0.07086807
000020 52 37 f4 3d 2d d3 5a 3e 4d 5a 4d be b5 5c 33 3e
       0.11924614 0.2136962 -0.20053978 0.17515834
000030 a4 bf 35 3e 9f 2c 3f bc 07 5b e8 3d ac 6d ff 3d
       0.17748886 -0.011668353 0.11345487 0.1247209
000040 46 60 1e be c5 41 b8 3d 39 3f a0 3d 84 9e 36 bd
       -0.15466413 0.089969195 0.07824559 -0.044584766
000050 91 ad 45 3e 47 ed 2c 3e a3 41 c1 bd 30 c5 f9 3d
       0.19304492 0.16887389 -0.09436347 0.12195814
000060 61 e1 82 3e 77 a5 a4 bd 47 64 68 3e d4 f0 02 3e
       0.25562575 -0.080393724 0.22694503 0.12787181
000070 e0 41 3f 3e f7 92 c3 3d 3e b6 26 3d c0 e9 8e bd
       0.18677473 0.09549516 0.040701143 -0.06978178

arith.constant6 f4 [29]
000000 7d 17 4f bd 25 0f 21 3e b6 08 61 3e 17 51 02 be
       -0.05055951 0.15728433 0.21975979 -0.12726246
000010 83 12 42 bc b4 28 e8 3e 02 a4 e9 bd ea 4f 49 3d
       -0.011845234 0.45343554 -0.11408235 0.049148478
000020 bb b3 ba 3d 31 1b d1 3e 6a bf 97 bd 0c 03 73 3e
       0.09116312 0.40841058 -0.07409556 0.23731631
000030 78 b6 6c be ba 61 06 3e 86 7a bd bd d9 e9 0c be
       -0.23116481 0.13123217 -0.09251885 -0.13761081
000040 05 a5 06 3e 55 23 80 bd fd 58 36 3d cb e3 53 3d
       0.13148887 -0.06256739 0.04451846 0.051730912
000050 fa 63 bb 3e cb 53 b2 bd 83 65 21 bf 4d e3 ee 3d
       0.36599714 -0.087073885 -0.6304552 0.11664448
000060 f5 ad b7 be 66 54 1f 3d 12 04 4d 3e a9 76 2d be
       -0.35874906 0.038898848 0.20021084 -0.16939797
000070 4c 77 cd be
       -0.4013008

arith.constant19 f4 [512, 63]
000000 b0 53 b5 3e 6a 1a cd 3e 23 f2 c1 3d 9b 7e f3 3e
       0.3541541 0.40059215 0.09470012 0.4755753
000010 cd f9 b5 3e ee 69 93 be 10 88 c3 3e 20 9f 6a 3e
       0.35542145 -0.28791755 0.38189745 0.22912264
000020 20 3d 38 be fe c2 c2 3e 10 6d 39 3e 4d 91 27 be
       -0.17992067 0.38039392 0.1810801 -0.16364022
000030 09 81 e8 3e 1e a4 ac 3e 27 cb 1f be a3 3f cf 3e
       0.45410946 0.3371896 -0.1560484 0.40478238
000040 a1 19 ba 3e c9 4c 90 bd 91 f7 be 3e 63 d1 c4 3e
       0.36347678 -0.070458956 0.37298253 0.38441
000050 09 73 bf bb d3 36 b1 3e 1a 87 de 3e 98 41 6e bd
       -0.0058425707 0.3461214 0.4346245 -0.058168024
000060 bc 01 e2 3e 57 ec dd 3e b9 b5 e3 bd d8 db a6 3e
       0.44141948 0.43344375 -0.11118645 0.32589602
000070 56 55 b6 3e fa 48 28 bb db e3 9d 3e 8e 67 ad 3e
       0.3561198 -0.0025678263 0.30837902 0.33868068
000080 6b 08 c5 bd 0e 1a 80 3e ad 2f fb 3c ca 40 19 bd
       -0.09620746 0.25019878 0.030662382 -0.037415303
000090 7b 9d 18 3e 7f 8b 89 be b0 72 33 bc b8 e4 a7 3e
       0.14903824 -0.2686424 -0.010952637 0.32791686
0000a0 3c e6 87 3e a5 30 09 3d 4f fa a2 3e 4b e1 30 3e
       0.26542842 0.033493657 0.31831595 0.17273442
0000b0 fa e1 2c be 2e df 81 3e a4 78 47 bd 1b 33 ac bd
       -0.16883078 0.25365585 -0.048699036 -0.08408185
0000c0 e3 19 aa 3e 5c ec 9c bc 16 28 2c 3e 4c 5c f3 3e
       0.33222875 -0.019155674 0.16812167 0.47531354
0000d0 8f 20 f2 3e 60 f4 d7 bd 8e c4 b3 3e 85 51 58 3e
       0.47290465 -0.10544658 0.35110897 0.21124847
0000e0 3f 52 8a be 34 d6 82 3e 43 26 4e 3d c0 23 d2 be
       -0.27015874 0.2555405 0.050329458 -0.410429
0000f0 ee de 90 3e c0 1d fc bd 45 ff 5c be dd e6 6c 3e
       0.28295082 -0.12310362 -0.21581753 0.23134942
000100 87 27 89 3e d2 e4 87 3d bd 34 b6 3e 56 40 ab 3e
       0.2678797 0.06635441 0.3558711 0.33447522
000110 ee 0c 42 bf 58 1d 96 3e e4 da 8c 3e c1 32 2e bf
       -0.7580098 0.29319263 0.2751075 -0.68046194
000120 2c 4a 6a 3e 41 2f 72 3e b4 3b 41 bf ad 6d 5f 3d
       0.22879857 0.23650838 -0.75481725 0.054547954
000130 f5 95 89 3e 94 f6 3d bf 66 52 28 3e 43 4e c5 3d
       0.2687222 -0.74204373 0.16437683 0.09634068
000140 44 9a 0e bf a5 2f b5 3d d6 3c 52 be 71 ad f4 be
       -0.5570414 0.08846978 -0.2053102 -0.47788575
000150 03 c9 4b bd 97 b1 82 be 24 80 ba be e0 21 e5 bd
       -0.049752247 -0.25526115 -0.3642589 -0.11188102
000160 57 9a 52 be d5 d3 d3 be f5 f5 92 3e e2 63 23 3d
       -0.20566688 -0.41372553 0.28703275 0.039890178
000170 eb 9d af be 93 09 6f 3d e5 94 87 bd 33 b5 a1 be
       -0.3430017 0.05835874 -0.06620196 -0.31583557
000180 e9 49 21 be f9 86 9c 3e d3 7d ce be 36 0b 03 bd
       -0.1575085 0.30571726 -0.4033037 -0.031993113
000190 bc d1 5c 3f 9e 16 c3 be 8d 06 6f 3e 59 c1 26 be
       0.8625753 -0.38103193 0.23342343 -0.16284694
0001a0 24 19 dd bc 65 f0 0d bd 8a 19 d6 bc ad 53 99 be
       -0.026989527 -0.034653086 -0.026135225 -0.29946652
0001b0 55 c5 3d bd f4 d2 a3 3e 3c c6 ca be 1a a2 e7 3d
       -0.04633077 0.31996882 -0.39604366 0.11310215
0001c0 ca 1f 02 3f d2 48 ea be a3 12 b4 3d ec a8 8a be
       0.50829756 -0.45758682 0.08792617 -0.27082002
0001d0 72 6c 79 3e 77 2d b6 3d 1d 08 86 be a2 0f a4 bd
       0.24357775 0.088953905 -0.26178065 -0.08010794
0001e0 b5 67 de 3d 4f 66 4b 3c 05 e8 58 be 06 88 3b 3e
       0.10859624 0.012414529 -0.21182258 0.18313608
0001f0 ff 82 9a 3e 3f 64 83 bd bc 62 cc 3e 7f 09 0e 3e
       0.30178067 -0.06415605 0.39919078 0.1387081
000200 d9 b8 a7 bc 6e 38 03 3f 12 6f b5 3e 6d cc 32 bf
       -0.020473884 0.5125798 0.35436302 -0.6984318
000210 9c a3 a6 3e cc d6 bb 3e ff 85 31 bf 3b ef 8f 3e
       0.325467 0.36687315 -0.69345087 0.28112206
000220 77 0f c1 3e b0 e0 36 bf 11 56 da 3c 28 7f 1b 3f
       0.3770711 -0.71436596 0.026652368 0.607409
000230 9a 61 e3 be d5 39 39 3e 65 fb 50 3e 77 d3 f6 be
       -0.44410402 0.18088467 0.204084 -0.4820821
000240 6a c3 c2 3d d5 c8 95 3e 63 4d 4c bf ca 09 4a 3e
       0.095099285 0.29254785 -0.7980558 0.19730297
000250 8b 82 f3 3e 32 3d 26 bf f4 22 04 3d 63 ca 1f 3f
       0.47560534 -0.64937127 0.032259896 0.6241819
000260 7d 67 33 bf bb 9e 8c 3e c9 77 3d 3e bb 89 f8 be
       -0.70079786 0.27464852 0.18502726 -0.4854258
000270 e7 76 b3 3d 0c f6 49 3e 46 a9 45 bf 3d d5 c8 3c
       0.08762913 0.19722766 -0.77211416 0.024515742
000280 d0 3c 07 3e 6c 01 20 bf 69 52 26 3e 75 6b 2c 3e
       0.13206792 -0.6250217 0.16242374 0.16837867
000290 db 4c 29 bf 5e a8 57 3e 5b f6 25 3e 4f 25 bb be
       -0.661329 0.2106032 0.16207258 -0.36551902
0002a0 53 cc ec 3d 2e 63 44 3e 0b a3 4d bf cf a2 25 3e
       0.11562409 0.19178459 -0.8032691 0.16175388
0002b0 fd 02 fd 3d 5a 00 4c bf d9 d9 c1 3c 67 a1 c2 3d
       0.123540856 -0.79688036 0.023663448 0.09503441
0002c0 c1 fb 12 bf 3b 2f ec 3d 0f fc 36 3e 6a 67 12 bf
       -0.57415396 0.11532446 0.1786959 -0.5718905
0002d0 3d 78 e9 bc 7b 93 32 3e f0 fe 2b bf 4a 4f 00 bd
       -0.028499717 0.17439072 -0.6718588 -0.031325616
0002e0 6c 83 49 3e 1a d7 4c bf ee d8 e8 bd c4 1a 5e 3e
       0.1967904 -0.8001572 -0.11369501 0.21689898
0002f0 60 28 27 bf a1 17 0e 3f 12 0b 81 3e de 42 88 bd
       -0.6529598 0.55504805 0.25203758 -0.06653379
000300 3f a6 0b 3f 50 5d 25 3e 71 13 8c 3e c2 92 c6 3e
       0.54550546 0.16148877 0.27358583 0.38783842
000310 84 3d 4b 3e 2e eb 19 3e eb 1d 52 3e 62 77 af 3e
       0.19847685 0.1503112 0.20519225 0.3427077
000320 29 ef 0d bc 7c ab 25 3e dd ee b7 3e eb 9e 08 bd
       -0.008662977 0.16178697 0.35924426 -0.03335468
000330 85 6a fb 3e d3 28 c7 3e d3 6b 44 be 78 27 e3 3e
       0.49104705 0.38898334 -0.19181757 0.4436605
000340 eb 4c 0e 3f de ed b2 be f7 85 e8 3e 63 8b ff 3e
       0.5558612 -0.34947103 0.45414707 0.4991103
000350 92 1f 89 be a8 53 97 3e 30 b6 0e 3f f3 41 b9 be
       -0.267819 0.29556012 0.55746746 -0.36183128
000360 90 54 06 3f fd b3 9e 3e 4e ca 8d be 6e ab 14 3f
       0.5247278 0.30996695 -0.2769341 0.5807408
000370 bf d7 db 3e 85 5a cf be 09 1f 04 3f 81 a0 e7 3e
       0.4293804 -0.40498748 0.51609856 0.45239642
000380 16 18 dc be fe 53 01 3f aa 10 d1 3e 01 92 fc be
       -0.42987126 0.50518787 0.40833026 -0.49330142
000390 27 4c fa 3e 7f 14 94 3e 86 82 0b bf 57 1a f4 3e
       0.48886225 0.28921887 -0.5449604 0.47676346
0003a0 4f 45 9c 3e d9 a6 c8 be 2e ca 06 3f 48 c7 a6 3e
       0.30521628 -0.39189795 0.5265225 0.32573915
0003b0 a8 d3 ba be 9b e1 f3 3e c9 d8 88 3e b5 51 57 be
       -0.36489606 0.4763306 0.26727894 -0.21027263
0003c0 88 12 d6 3e 8d d6 99 3e f3 b5 f7 be bb c8 57 3e
       0.41811013 0.30046502 -0.48381004 0.21072666
0003d0 17 36 03 3f 4e 9b 01 bf 3e 7c 30 3e a4 9e b9 3e
       0.5125441 -0.506276 0.17234895 0.36253846
0003e0 b3 9e cc be b8 ec 13 3e 5f b9 a7 3e 73 ad 62 be
       -0.39964828 0.1444577 0.32758614 -0.22136478
0003f0 90 dd 9c 3e 8a d4 96 3e aa e3 1f bd bf ef dd 3e
       0.3063779 0.2945903 -0.039035477 0.43346974

arith.constant20 f4 [512, 128]
000000 10 63 84 bd e0 22 e4 3b fc 9a 0b 3d a0 3d 35 3b
       -0.06464207 0.0069621652 0.03408335 0.002765514
000010 78 4c 31 bd a8 91 0f 3d 32 6b 28 3d 6f 44 e2 3c
       -0.043285817 0.035051018 0.041117854 0.027620522
000020 b8 b4 3d bd e0 97 73 3c 35 11 40 bc 9d ea b8 3c
       -0.046314925 0.014867753 -0.0117228525 0.02257281
000030 c4 3c d7 bc 62 01 56 bd d0 e8 a3 3c 95 1e 27 3d
       -0.026274092 -0.052247413 0.020008475 0.04080065
000040 9b f8 87 bd 32 71 39 3d 20 25 10 3e 1f 6b 8a bd
       -0.066392146 0.045273967 0.14076662 -0.06758713
000050 44 9e bd bb 1c 1d 98 3d 77 47 3a 3d 94 f3 8d 3c
       -0.005786689 0.07427427 0.04547831 0.017328061
000060 3d e8 94 3c ca 9e 64 bd f0 b7 24 bc 02 99 36 bd
       0.018177146 -0.055815496 -0.01005362 -0.044579513
000070 26 1d b3 3c 35 21 6f bd a4 aa 85 bc 08 42 dd bb
       0.021864485 -0.058381278 -0.01631672 -0.0067522563
000080 4f 07 a0 3b 5e 41 be bc 63 22 a3 bd c5 63 13 bd
       0.0048836838 -0.023224529 -0.07965543 -0.03598382
000090 2a d3 e8 3c 1c ae 38 3d 12 f6 83 3c 80 a3 88 b9
       0.028421003 0.04508792 0.016108546 -0.00026061758
0000a0 a9 39 aa bb 7f 60 d8 3d 25 28 c7 3c 2f 3a 9e bc
       -0.005194862 0.1056528 0.024311135 -0.019314853
0000b0 ba 2c fd 3c 5a 69 a1 3b d4 ac 20 3d 81 20 94 3d
       0.030905116 0.004925889 0.03922732 0.07232762
0000c0 5f cf b2 3c f0 c2 a2 39 f7 bc 29 3c 23 dd a5 3b
       0.021827398 0.00031044288 0.010359994 0.005061762
0000d0 70 51 74 3c 81 12 08 3d 24 3b 46 bd dc 7c 8f bc
       0.014911994 0.03322077 -0.048396245 -0.017515592
0000e0 bb 23 14 bd a4 8f 73 3d 84 a9 38 3c 09 bb 26 bd
       -0.036166888 0.05946316 0.011270884 -0.040705714
0000f0 cc c2 b3 bc 2d 17 89 3b 76 cf 96 bd c4 59 ba bd
       -0.021943472 0.004183671 -0.07363789 -0.09099153
000100 92 a9 02 3c f4 59 8f bd 90 13 37 3d d4 46 31 3c
       0.007974999 -0.06999579 0.04469639 0.010820109
000110 94 f0 f1 3c 6a 89 b7 bc 08 f3 44 3c 9e c4 38 bd
       0.029533662 -0.022404391 0.012020834 -0.045109384
000120 f1 7c b4 3b 54 3c b9 3c ac 61 77 3d 56 a0 5f 3b
       0.0055080582 0.022611775 0.06039588 0.0034122667
000130 60 0a 78 3d ec 42 a1 3c 02 60 b8 3b 44 85 35 3d
       0.06055677 0.019685231 0.0056266794 0.044316545
000140 d6 67 76 3c 1a 8a 06 bd ce b9 42 3d 4c 5d 13 3d
       0.015039405 -0.032846548 0.04754048 0.035977647
000150 38 1d c1 bc 10 24 37 bd da 0f ff 3d d7 83 64 3c
       -0.023573503 -0.044712126 0.12454195 0.013947449
000160 d7 ef c7 3c 76 9a 66 bc e8 67 90 bd 72 50 54 bd
       0.024406357 -0.014074912 -0.070510685 -0.05183453
000170 8f ef a4 3d 35 19 85 3c ad 6b 90 3d 09 39 c1 3d
       0.08053505 0.016247371 0.070517875 0.09434707
000180 06 b8 74 ba 0d 21 b4 bd 38 7f c1 38 b4 ba 4f bb
       -0.0009335283 -0.087953664 9.2266535e-05 -0.0031696977
000190 3f ed 08 3d 7b 8a 84 3d dd c4 48 bd a0 e7 8d 3d
       0.03342938 0.064717256 -0.04901587 0.069289446
0001a0 f6 66 3e 3b 50 ca 64 bd a6 ab 45 3d cf c9 c7 3c
       0.0029053069 -0.055857003 0.0482594 0.024388222
0001b0 e6 8a 11 bc 6f 2e 22 3d 24 39 29 3a dc e5 a4 3c
       -0.008883214 0.039595064 0.0006455353 0.020129137
0001c0 4c f7 55 bd dc 24 a3 bd c9 4e fd bc 77 13 b8 3c
       -0.052237794 -0.07966015 -0.030921357 0.022470219
0001d0 3b 0d 35 3d f8 a2 9e bd 85 90 d8 ba 1e fc ff 3d
       0.04420207 -0.077459276 -0.0016522562 0.124992594
0001e0 62 68 b6 3c e0 a1 7f 3d 86 87 08 3d c2 8a 24 3c
       0.02226657 0.062410235 0.03333237 0.010042848
0001f0 b6 28 cb 3b 47 e7 cf 3b ee e4 09 3b 8d 62 79 bc
       0.0061999215 0.006344709 0.0021040994 -0.01522125
000200 60 91 99 bd 20 5b 6d 3d 14 d8 4b 3d 44 6a 85 bd
       -0.07498431 0.05794823 0.049766615 -0.06514409
000210 3c 96 26 bc 54 f9 00 3d 1d de 2c bd 70 1d 25 3c
       -0.010167655 0.031487778 -0.04220401 0.010077819
000220 5f 2c b0 bd 02 56 98 3b 3e a1 04 3d 9f c7 23 bd
       -0.08602213 0.004648925 0.032380335 -0.039985295
000230 da a9 76 bd 2b 5b 8d 3c 3b 7c 81 bd 38 af 3b bd
       -0.060220577 0.017255386 -0.06322523 -0.0458214
000240 36 8c d7 bc 60 29 04 bd 98 ed 95 ba b6 4a 0b bd
       -0.026311975 -0.03226602 -0.0011438606 -0.034006797
000250 23 e9 a8 bc 6b 12 c5 bb 66 bb 9c bc 24 69 3c 3d
       -0.02061898 -0.0060141585 -0.019132327 0.045998707
000260 c2 2f ea 3c 56 a6 5e 3c c6 a0 b7 3c 7c 14 23 ba
       0.028587226 0.013589462 0.02241553 -0.0006221009
000270 c3 50 b4 bc 68 da 70 bd 31 a6 80 3d 04 c6 c4 bc
       -0.022011166 -0.05880204 0.062816985 -0.024020202
000280 8b cf a8 3c 07 1e 28 bd b2 7e c4 3d 12 cb bc bb
       0.020606777 -0.04104426 0.09594478 -0.0057615126
000290 b0 a8 e7 bc a9 17 ba bd 3d 9d 3e bd 08 97 21 3d
       -0.028278679 -0.09086544 -0.046536673 0.039450675
0002a0 c3 13 58 3c 46 21 af 3d 88 e9 dc 3b a9 4b 1f bd
       0.013188305 0.08551268 0.0067417063 -0.038890515
0002b0 bb 84 15 3d 1a 52 e3 3c b0 48 aa 3c a4 7c 6f bd
       0.036503535 0.02774911 0.020786613 -0.058468476
0002c0 74 b0 9a 3d 72 19 2a bd 87 53 95 3c e4 71 a9 3d
       0.07553187 -0.041528173 0.018228306 0.08273676
0002d0 f4 d3 01 3d 0f f0 9b bc 9d 17 ad bd 6b 13 29 3c
       0.031696275 -0.019035367 -0.084517695 0.010319571
0002e0 e4 4b a8 bc aa 01 02 3d 41 dd 6e 3d de c4 4f 3c
       -0.020544 0.03173987 0.058316473 0.012681214
0002f0 69 59 c9 3c f2 40 48 3d 00 cb a6 3a b1 95 18 bd
       0.024578767 0.04889006 0.0012725294 -0.03725213
000300 f2 7d c3 bd 7b d2 8c bd f9 3d 0c bd 7b 10 a4 bc
       -0.095455065 -0.068760835 -0.03423879 -0.02002739
000310 46 7d 31 bd b8 09 49 bc 74 ae 72 3d 9b 43 1c bd
       -0.04333236 -0.012270384 0.059248403 -0.03815041
000320 90 99 a2 bb 5e af 1d bc a2 8d fe bc d1 d5 05 3d
       -0.0049621537 -0.00962433 -0.031073395 0.032674614
000330 51 ec 51 3d 39 13 5d bc b4 4c d5 3c 40 00 f2 bb
       0.05125076 -0.013493353 0.026037551 -0.0073852837
000340 48 d6 a6 3d c2 f9 88 3c bd 9d cb 3c 14 a0 8a bd
       0.0814634 0.016720656 0.024855489 -0.06768814
000350 83 9c f8 bb 07 ad 23 bd 96 50 74 bd 66 69 8c bc
       -0.007587017 -0.039959934 -0.059647165 -0.017140102
000360 7e 5d 1e 3b 70 00 89 bc 69 52 10 bd c2 8f 11 bb
       0.0024164612 -0.016723841 -0.035234842 -0.002221093
000370 34 ef 8c 3d fb c5 8c bc c4 78 24 3c f6 e2 67 bc
       0.06881562 -0.017184248 0.010038558 -0.014153233
000380 df 7a 16 3a 48 34 8c bb 72 38 d1 bc 8d 6d 18 bd
       0.0005740355 -0.0042786933 -0.02553961 -0.03721385
000390 b5 66 98 3d 42 22 cb 3c b5 5a 36 bd ac 93 7d bc
       0.07441465 0.024796609 -0.0445201 -0.015477102
0003a0 40 d6 e4 3c 47 8d 96 bd b4 7b 09 3d 70 01 5b bd
       0.027934194 -0.07351165 0.033565238 -0.053468168
0003b0 69 60 52 bd fb 19 fe bc 09 5c 21 bd 22 3b a0 bd
       -0.051361475 -0.031018248 -0.039394412 -0.07823779
0003c0 d9 24 98 bd 7e 60 4d 3b e6 08 83 3c bb 0d a9 3c
       -0.07428903 0.0031338031 0.015995454 0.02063643
0003d0 c6 37 8f bc 82 06 ab bc 9d 1a ac bd 83 38 31 3d
       -0.01748265 -0.020877127 -0.084035136 0.043266784
0003e0 5b 71 73 bd 9e fa 1a 3c 2a 74 a7 bc 74 7e d9 3c
       -0.059434276 0.009459166 -0.020441134 0.026549555
0003f0 42 0c 5e bd d9 9d bc 3c fd 75 b0 3b 5f 6d 37 bd
       -0.05421091 0.023024486 0.005385159 -0.04478204

sequential_1/lstm_1/while/lstm_cell_1/add_1/ReadVariableOp f4 [512]
000000 9a b2 36 3e 34 29 4e 3e 82 0f 3a 3e 59 e8 bb 3e
       0.17841569 0.20132905 0.18169978 0.36700705
000010 f7 35 cf 3d e8 d7 1f 3b 26 29 93 3d 68 9a af 3e
       0.10117715 0.0024390165 0.07185583 0.3429749
000020 7b 46 20 3f 63 98 60 3e b3 e2 fd 3e 15 e1 6e 3e
       0.62607545 0.21933131 0.4958702 0.2332805
000030 2a 50 e6 3d b2 dd ea 3d b3 1a 55 3d 26 1a 1d 3e
       0.11245759 0.11468066 0.052027415 0.15342006
000040 69 00 be bd ad 57 fe 3e 42 da 1a 3e 30 60 e2 3e
       -0.09277422 0.49676266 0.15122321 0.4421401
000050 5b 65 8f 3e ab 62 ea 3e 6a 5e 7b 3d 66 0c f3 3e
       0.28007016 0.45778403 0.061369337 0.47470397
000060 35 fd 80 3e 8b 68 a9 3e 02 99 ad 3e 27 49 ac 3d
       0.25193182 0.33087572 0.33905798 0.0841239
000070 ed 6a 0a 3e 8e 69 6f 3e f9 3b 6b 3e 16 e3 3c bd
       0.13517351 0.2338011 0.22972097 -0.046115004
000080 bf 6f bb 3e ba 39 4a 3e 30 b1 b6 3d ef 60 bb 3e
       0.36608693 0.19748583 0.089205146 0.36597392
000090 1f 74 b4 3e d0 39 2f 3f 65 6c f4 3d e1 6e 14 3e
       0.35244843 0.6844759 0.11934737 0.14495422
0000a0 72 56 33 bd e7 9b 59 3c 85 63 0b 3f 43 50 07 3e
       -0.043783613 0.013281799 0.5444873 0.13214211
0000b0 c7 a0 c4 3e fe f0 98 3e ad 1c b5 3e 15 7b e4 3e
       0.38403913 0.29871362 0.3537344 0.44625154
0000c0 b8 ec fd 3e 84 6c 49 3d 5d 19 68 3e 18 9e 02 3e
       0.49594665 0.049175754 0.22665925 0.1275562
0000d0 cb 8d 87 3e 88 89 c4 3c 5b 5f e5 3e cf f3 f0 3e
       0.26475367 0.023991361 0.44799313 0.4706101
0000e0 65 58 6a 3e 3b 92 cb 3e 4b c7 17 3f 15 9f 1f 3f
       0.22885282 0.39760002 0.5928847 0.62352115
0000f0 cd b7 24 3f 0a eb 93 3e 18 51 ca 3e 6b 0b a7 3e
       0.6434296 0.28890258 0.39514995 0.326259
000100 9f 78 ce 3d a9 71 5e bb a3 45 1e 3c 3a 7a 16 3c
       0.100816004 -0.0033942258 0.009660157 0.0091844145
000110 72 b0 9a 3d 39 ee a2 3e 6d 64 6f 3e cf cb 4a bd
       0.075531855 0.31822374 0.23378153 -0.049510773
000120 53 08 dd 3e e6 b2 98 bd 85 16 e7 3e 91 86 ec 3d
       0.43170413 -0.07455997 0.4513437 0.11549104
000130 8b f8 04 3c b6 35 bf 3e 64 d1 c7 3d 80 b4 87 3d
       0.008115898 0.37345666 0.09756735 0.066262245
000140 ad 85 e0 3e fc d8 59 bd 5c 30 0d 3d d7 7d a4 3e
       0.43851987 -0.053185448 0.034469947 0.32127258
000150 47 33 33 3e 49 f7 c5 3e 1e b2 97 3e 02 14 e3 3e
       0.1750003 0.38665226 0.2962808 0.44351202
000160 66 7c b2 3e cc 0c 76 3e b1 e4 18 3f 1d ab c9 3d
       0.34860533 0.24028319 0.59723955 0.098470904
000170 09 48 10 bd c3 a2 0e 3d b7 df 04 3e b2 7e 3d 3e
       -0.035224948 0.03482319 0.12975965 0.18505362
000180 b2 ce 99 3e 4d 4a a2 3d 17 91 dc 3d 20 cb eb bd
       0.30040509 0.07924328 0.10769861 -0.115133524
000190 43 ca 00 bd de 5c 9c 3e 9c 10 0c 3e 1a e4 af 3e
       -0.03144289 0.30539602 0.13678211 0.34353715
0001a0 8f 9d 32 3e 90 34 eb 3d 57 31 b2 3e 1b 60 8f 3d
       0.17442916 0.11484635 0.34803268 0.070007525
0001b0 40 9c 01 3f 34 04 12 3f f0 04 63 3e 88 85 20 3c
       0.50629044 0.57037663 0.22169852 0.009797461
0001c0 f4 1b cb 3d 86 75 82 3d 4f 43 16 3f 6d c9 2a 3f
       0.09917441 0.06370072 0.58696455 0.667136
0001d0 ee 89 de 3e 2b 87 3c 3e 86 be 87 3e da be c2 3d
       0.43464607 0.18410937 0.26512545 0.09509058
0001e0 8f c6 89 3b 1d cf 27 3f 1c a8 81 3d 29 92 01 3f
       0.004204578 0.65550405 0.063308924 0.5061365
0001f0 77 28 25 3f 30 f8 08 3d f5 b0 9a bc 2d 5e dc 3d
       0.6451487 0.033439815 -0.018883208 0.1076015
000200 00 00 80 3f 00 00 80 3f 00 00 80 3f 00 00 80 3f
       1.0 1.0 1.0 1.0
000210 00 00 80 3f 00 00 80 3f 00 00 80 3f 00 00 80 3f
       1.0 1.0 1.0 1.0
000220 00 00 80 3f 00 00 80 3f 00 00 80 3f 00 00 80 3f
       1.0 1.0 1.0 1.0
000230 00 00 80 3f 00 00 80 3f 00 00 80 3f 00 00 80 3f
       1.0 1.0 1.0 1.0
000240 00 00 80 3f 00 00 80 3f 00 00 80 3f 00 00 80 3f
       1.0 1.0 1.0 1.0
000250 00 00 80 3f 00 00 80 3f 00 00 80 3f 00 00 80 3f
       1.0 1.0 1.0 1.0
000260 00 00 80 3f 00 00 80 3f 00 00 80 3f 00 00 80 3f
       1.0 1.0 1.0 1.0
000270 00 00 80 3f 00 00 80 3f 00 00 80 3f 00 00 80 3f
       1.0 1.0 1.0 1.0
000280 00 00 80 3f 00 00 80 3f 00 00 80 3f 00 00 80 3f
       1.0 1.0 1.0 1.0
000290 00 00 80 3f 00 00 80 3f 00 00 80 3f 00 00 80 3f
       1.0 1.0 1.0 1.0
0002a0 00 00 80 3f 00 00 80 3f 00 00 80 3f 00 00 80 3f
       1.0 1.0 1.0 1.0
0002b0 00 00 80 3f 00 00 80 3f 00 00 80 3f 00 00 80 3f
       1.0 1.0 1.0 1.0
0002c0 00 00 80 3f 00 00 80 3f 00 00 80 3f 00 00 80 3f
       1.0 1.0 1.0 1.0
0002d0 00 00 80 3f 00 00 80 3f 00 00 80 3f 00 00 80 3f
       1.0 1.0 1.0 1.0
0002e0 00 00 80 3f 00 00 80 3f 00 00 80 3f 00 00 80 3f
       1.0 1.0 1.0 1.0
0002f0 00 00 80 3f 00 00 80 3f 00 00 80 3f 00 00 80 3f
       1.0 1.0 1.0 1.0
000300 00 00 80 3f 00 00 80 3f 00 00 80 3f 00 00 80 3f
       1.0 1.0 1.0 1.0
000310 00 00 80 3f 00 00 80 3f 00 00 80 3f 00 00 80 3f
       1.0 1.0 1.0 1.0
000320 00 00 80 3f 00 00 80 3f 00 00 80 3f 00 00 80 3f
       1.0 1.0 1.0 1.0
000330 00 00 80 3f 00 00 80 3f 00 00 80 3f 00 00 80 3f
       1.0 1.0 1.0 1.0
000340 00 00 80 3f 00 00 80 3f 00 00 80 3f 00 00 80 3f
       1.0 1.0 1.0 1.0
000350 00 00 80 3f 00 00 80 3f 00 00 80 3f 00 00 80 3f
       1.0 1.0 1.0 1.0
000360 00 00 80 3f 00 00 80 3f 00 00 80 3f 00 00 80 3f
       1.0 1.0 1.0 1.0
000370 00 00 80 3f 00 00 80 3f 00 00 80 3f 00 00 80 3f
       1.0 1.0 1.0 1.0
000380 00 00 80 3f 00 00 80 3f 00 00 80 3f 00 00 80 3f
       1.0 1.0 1.0 1.0
000390 00 00 80 3f 00 00 80 3f 00 00 80 3f 00 00 80 3f
       1.0 1.0 1.0 1.0
0003a0 00 00 80 3f 00 00 80 3f 00 00 80 3f 00 00 80 3f
       1.0 1.0 1.0 1.0
0003b0 00 00 80 3f 00 00 80 3f 00 00 80 3f 00 00 80 3f
       1.0 1.0 1.0 1.0
0003c0 00 00 80 3f 00 00 80 3f 00 00 80 3f 00 00 80 3f
       1.0 1.0 1.0 1.0
0003d0 00 00 80 3f 00 00 80 3f 00 00 80 3f 00 00 80 3f
       1.0 1.0 1.0 1.0
0003e0 00 00 80 3f 00 00 80 3f 00 00 80 3f 00 00 80 3f
       1.0 1.0 1.0 1.0
0003f0 00 00 80 3f 00 00 80 3f 00 00 80 3f 00 00 80 3f
       1.0 1.0 1.0 1.0

arith.constant24 f4 [256, 128]
000000 8b 00 99 3e 68 3d a1 3e b7 4a 4c bd ee d8 2a 3e
       0.29883227 0.31492162 -0.04987594 0.16684315
000010 52 d3 86 be 51 38 51 be 32 a5 79 3e ba cc b8 3d
       -0.263331 -0.20431639 0.24379423 0.090234235
000020 fd 0d 0d 3e 6c 37 ed be fd cc e4 3e 9f 7b ba 3e
       0.13774867 -0.46331346 0.44687644 0.3642244
000030 a0 5f ba be 8d a3 28 3e 7e de 9a be 37 ea ad be
       -0.3640108 0.1646864 -0.30247873 -0.33967754
000040 d2 73 b6 be f3 f6 c7 be b6 e7 19 bf 87 6a a3 bd
       -0.3563524 -0.39055595 -0.6011919 -0.07979303
000050 70 75 66 3c 59 4d 59 bc 14 1b 15 3e b5 51 91 3d
       0.014066085 -0.01326307 0.1456111 0.070956625
000060 e2 e4 31 3e eb 62 59 3d bf 27 18 be df 50 ed 3c
       0.17372468 0.05307285 -0.14858912 0.028969226
000070 5b 4f a6 be d3 aa 16 3f 3a 7e 01 bf 5d 34 01 bf
       -0.32482418 0.5885441 -0.5058323 -0.50470525
000080 8d 0d 3f be 7b 97 0a bf a6 12 48 bd fd d2 da be
       -0.18657513 -0.5413739 -0.04884591 -0.42739096
000090 8d 5e c9 3e 06 ac cb be 1d 5f 23 be c8 00 87 3e
       0.3932995 -0.3977968 -0.15954252 0.26367784
0000a0 6e 2c 22 3f 85 38 3d bf 53 75 61 be 65 3f fb 3e
       0.63349044 -0.73914367 -0.22017412 0.49071804
0000b0 b9 d2 18 bf a1 4e d1 3e 74 6d 36 3e ea 9d ac be
       -0.5969654 0.40880302 0.1781519 -0.3371423
0000c0 62 b7 0c bd 19 bc 9b be 61 d9 45 be 5e 6f fe be
       -0.034354575 -0.30416945 -0.19321205 -0.4969434
0000d0 cd 33 9a be 0b 82 9a 3f f7 4a d5 be f7 50 71 bf
       -0.30117646 1.2070936 -0.41658756 -0.9426417
0000e0 9a f8 0e 3f 0e e1 02 3d e3 0b 3e bd 98 6c 7c 3f
       0.55848086 0.03195291 -0.046398055 0.986032
0000f0 70 57 07 be ce 42 d2 be 96 b6 c3 3e a2 f7 43 bf
       -0.13216949 -0.41066593 0.3822524 -0.7654973
000100 dd de 64 3e 2c ee 7b be ea 7a cc 3e d1 2d 20 bf
       0.2235064 -0.24602574 0.39937526 -0.6256991
000110 96 29 0e 3f d0 d4 53 3d f5 bb a5 be 0f e3 05 bf
       0.55532205 0.051716626 -0.32369962 -0.5229959
000120 c5 f1 a8 3d 76 16 df 3e fd fc 6e bd fe a2 07 bf
       0.08249239 0.43571824 -0.058346737 -0.5298308
000130 e5 03 8d 3f e8 ff 18 3f 70 25 f1 3b 22 98 8b bd
       1.1016814 0.5976548 0.007359199 -0.068161264
000140 05 96 da 3e 28 69 c6 3e bd fc 1a bf 24 f6 a6 3d
       0.4269258 0.38752103 -0.605419 0.08152416
000150 b7 b8 ed be 9b 89 88 3e 64 21 80 be d7 78 00 bf
       -0.4642999 0.26667485 -0.25025475 -0.50184387
000160 68 aa 6b be 58 b3 6f 3c 66 87 b1 be 1c 11 71 be
       -0.23014224 0.014630161 -0.34673613 -0.23541683
000170 91 c9 3d bf 2c 05 f9 3b ab b9 1b 3f bc 97 15 bf
       -0.7413569 0.0075994935 0.6083018 -0.58434653
000180 ac 4d 17 bd 04 43 1b be 17 f1 bf 3e 53 c7 98 3e
       -0.036939308 -0.15162283 0.37488624 0.29839572
000190 03 38 ed bc 4f 89 52 3e 05 8c 52 be 87 20 81 bf
       -0.028957373 0.20560192 -0.20561226 -1.0088052
0001a0 6d 0e 56 3f 76 11 86 3d fe 90 09 be c5 04 e3 be
       0.8361576 0.06546299 -0.13434216 -0.44339576
0001b0 97 3a 8a be 4d c3 1d bd c4 66 13 3f e6 cd 8f bb
       -0.26997826 -0.03851633 0.5757868 -0.0043885587
0001c0 e6 aa 98 3d 4a 24 3b 3e ec 0b 39 3e b5 15 fc 3e
       0.07454471 0.18275562 0.18070954 0.4923531
0001d0 38 78 28 be 46 15 9f bd 20 40 ae be ef 5d f7 3e
       -0.1645211 -0.077677295 -0.34033298 0.48313853
0001e0 3f 56 fb be 15 b4 3b 3e ae 5b 15 be d1 fc a2 3d
       -0.49089238 0.18330415 -0.14585754 0.07958377
0001f0 f7 5c 22 3e a9 e8 97 be 7e af ed 3c 62 ad cc 3d
       0.15855776 -0.29669693 0.029014345 0.09994008
000200 52 c6 8e be 69 2b 0c 3f 45 c6 48 3f 34 44 84 bd
       -0.2788568 0.5475374 0.78427535 -0.06458321
000210 d8 c3 48 3e ed 6f 29 3e f2 e5 03 be ff db 27 3f
       0.19605958 0.16546603 -0.12880686 0.6557006
000220 1b 7d 1f 3f 9b af ac be 5f 25 a4 3e 04 e1 15 bf
       0.6230027 -0.33727726 0.32059762 -0.5854647
000230 33 c3 eb 3e c5 fc 3e bc 09 c7 32 3e b9 ab 90 3e
       0.46047363 -0.011656945 0.17458738 0.28256014
000240 f5 5a a4 bd 52 fb d5 be c1 e5 fb bc ae bd 1b 3e
       -0.08025161 -0.41793305 -0.030749204 0.15209076
000250 84 cb f5 be 36 70 be bd ba 7a 2a 3f 20 c7 03 3f
       -0.48006833 -0.09298746 0.66593516 0.51475716
000260 bd 01 b7 be c3 b1 d4 3d ff 81 e4 3e 60 f0 37 be
       -0.35743514 0.10385468 0.4463043 -0.1796279
000270 04 5f 0d be 4d 37 bc 3e 56 85 69 be ee 2f 84 3d
       -0.13805777 0.3676094 -0.2280477 0.06454454
000280 1d fe 02 3f 08 e4 9b be df ba d5 3e c0 8c 28 bf
       0.51168996 -0.30447412 0.41744134 -0.6583977
000290 a7 f7 8d bc 21 1c 5f be e0 46 11 3f ea ac 1f ba
       -0.017330004 -0.21788074 0.5674877 -0.0006091135
0002a0 84 c6 9e 3e 06 54 4e 3d 93 82 4f be 34 72 90 3d
       0.3101083 0.0503731 -0.20264654 0.070530325
0002b0 03 b7 cf be b6 ba 44 be 1b 1a ac 3d 1f 77 8a be
       -0.40569314 -0.1921185 0.08403417 -0.27044007
0002c0 55 8a 9e 3e f2 51 e2 be 3e 02 07 be 9a 4c fe be
       0.30964914 -0.44203144 -0.13184449 -0.49667817
0002d0 e4 2d 56 bf 8f 78 79 bd 66 8d e6 bc 0d 89 1f 3e
       -0.83663774 -0.06090599 -0.028143596 0.15579624
0002e0 59 eb 83 3e 33 58 6d be b7 97 03 3f 15 77 e4 be
       0.25765494 -0.23178177 0.51403373 -0.44622102
0002f0 91 5e 5a 3e 9f 8f 03 bf c6 29 d1 3e f4 20 cc be
       0.21325137 -0.51391023 0.40852183 -0.3986889
000300 fc ce 91 be 6f 94 55 be 19 65 0b be fd 62 45 3d
       -0.2847823 -0.20857404 -0.13612784 0.048190106
000310 3f a6 23 3f a2 c1 c5 bd 41 82 c7 be 5d 82 7d 3d
       0.63925546 -0.09656073 -0.38966563 0.061891902
000320 b0 8d 31 be 9b 3c c8 3e b2 97 bc be a0 69 0f 3f
       -0.17339206 0.39108738 -0.36834484 0.56020546
000330 cd b9 80 be 6d 90 a5 3e 70 85 47 bc 4b 40 25 3f
       -0.25141755 0.3233675 -0.01217781 0.6455123
000340 69 7a 6c 3e 37 94 09 be fa ab ac 3e 3d 81 b8 be
       0.23093571 -0.13435446 0.33724958 -0.360361
000350 1f 11 05 bf f9 22 a1 3c 8f 77 63 bc d3 b0 b3 3e
       -0.5197925 0.019669997 -0.013883485 0.35095844
000360 7f d9 92 be ad bf 8d bc be bd 58 be ef 66 ca be
       -0.2868156 -0.017303312 -0.21166131 -0.39531657
000370 95 50 8a 3c 59 18 4e 3e aa 21 e1 3e ca c0 29 3e
       0.016884128 0.20126475 0.43970996 0.1657745
000380 9a bc 85 3e c6 50 76 3e 48 f4 b1 be f0 a3 8d bc
       0.26120454 0.2405425 -0.34756684 -0.017290086
000390 8a aa 89 bd 18 ab 14 3e f7 fd 6e 3d 26 80 20 3e
       -0.06721981 0.14518392 0.05834767 0.15673885
0003a0 e3 4c 87 3e c1 03 c5 3e 56 3e 6b 3e ff b5 b2 3d
       0.26425847 0.38479427 0.22972998 0.08726119
0003b0 f1 51 fe be 33 8d 51 be d6 4e a4 3c da 32 b1 3e
       -0.4967189 -0.2046402 0.020057123 0.3460911
0003c0 e9 4c 70 be cb c9 a6 be 12 d2 43 be 55 b4 53 be
       -0.23466839 -0.3257583 -0.19123104 -0.2067426
0003d0 e5 e8 81 3e e5 c2 dd 3e ad af 16 bf 33 7b 97 3e
       0.25372997 0.43312755 -0.5886181 0.2958618
0003e0 f3 01 04 3f 7d c5 cc 3e 80 1b 75 be 3a f6 35 be
       0.51565474 0.39994422 -0.23936272 -0.17769709
0003f0 ca 51 db 3c b9 a8 83 bd 0b 53 df 3d 28 b0 25 3f
       0.026772399 -0.06428666 0.10904511 0.6472192

arith.constant25 f4 [256, 64]
000000 c0 de d4 bc bc cb a6 3d 3f c3 bc bd 58 ba a2 3d
       -0.025985122 0.08144328 -0.09216928 0.079456985
000010 1c 3f 34 3e e2 3e d5 bc ab db 84 3d bc a2 95 bc
       0.176022 -0.026030961 0.06487211 -0.018266074
000020 25 34 67 3d 08 d4 c9 3c c0 8b a1 3c 0e 68 35 3d
       0.056446213 0.024637237 0.019719958 0.044288687
000030 38 4a 74 3d c3 b5 7a bd 0e f1 a5 3d 80 39 e1 3c
       0.059641093 -0.061208498 0.08102618 0.027493238
000040 c0 69 1e bb a8 2c e1 bd 1a cc 6f 3d e0 5e cc bb
       -0.0024171919 -0.10994846 0.058544256 -0.006236896
000050 f8 b9 e7 3d 7f 59 fb bd 18 90 ab 3c 42 7a cc 3d
       0.113147676 -0.122729294 0.020942733 0.09984256
000060 f4 3a 56 bd 68 e1 a9 bc c2 d9 8f 3c 56 db a9 bc
       -0.052302316 -0.020737365 0.01755989 -0.02073447
000070 c4 f4 f1 bd d6 f1 4d 3d 94 db b7 bc ac b5 8d bd
       -0.118142635 0.05027946 -0.02244357 -0.06919417
000080 04 53 cf 3c d4 e8 d2 bc f8 61 8d bd 2a 4c 65 bd
       0.02530814 -0.025745787 -0.06903452 -0.05598084
000090 ba 2d 12 3e ad 24 8d bc bc 56 50 3c 3c 14 27 bd
       0.14275256 -0.017229402 0.012715992 -0.04079078
0000a0 af 3c 1f be 87 fc 94 bd fb f6 40 bd 39 ed 0f 3c
       -0.15550493 -0.07274728 -0.04711054 0.008784586
0000b0 2d 5c af 3c 5a a6 8e 3d 5e 25 72 bc b0 d0 9d 3b
       0.021406258 0.06965323 -0.014779417 0.0048161373
0000c0 60 1d 3e be c7 71 ab 3c fc 43 af bd 8f 80 66 3c
       -0.18565893 0.020928277 -0.08557889 0.014068737
0000d0 6c 6a 47 3d 18 13 44 bb d5 d4 b8 bd 92 fe e6 3d
       0.048685476 -0.0029918607 -0.090249695 0.11279024
0000e0 e2 2f 2e bc 4d 47 a0 bd d6 9c 33 bd 4f f0 1d bd
       -0.010631533 -0.078260995 -0.043850742 -0.038559254
0000f0 ba e3 87 3d fc c0 47 bc db ce 2b bd 0d d7 05 bd
       0.06635232 -0.012192007 -0.04194532 -0.03267579
000100 90 4a ea bd 80 36 c3 bd 65 6a 0f bc 34 ad b5 3c
       -0.11440003 -0.095318794 -0.008753394 0.022177316
000110 97 68 9f bc fc c8 76 bc 54 b7 c5 3c 05 28 b1 bd
       -0.019459052 -0.015062567 0.02413527 -0.08650211
000120 f9 2d d4 3d 2c e2 c9 bb b8 01 99 3d b8 f6 4f 3c
       0.10360331 -0.006160995 0.07471031 0.0126931
000130 26 36 83 bc 50 5b 27 ba ec b0 fd 3b f9 0f 22 bd
       -0.01601703 -0.0006384151 0.007742038 -0.039566014
000140 79 92 60 bb e4 0e 73 bd 0a f5 95 3d 8e d8 8a bd
       -0.0034266992 -0.059340373 0.07322128 -0.06779586
000150 64 55 23 bd ec 0c 03 be 88 36 10 3d 0d d2 b3 3d
       -0.039876357 -0.12797898 0.035208255 0.087802984
000160 4c 5b 71 3c 0a 50 1f bc 08 bd 1c 3d 7e b3 fe bc
       0.0147312395 -0.009723673 0.03826621 -0.031091448
000170 e0 dd 7a ba c5 af 97 3c b4 91 9c 3c aa 39 35 bc
       -0.0009569805 0.01851643 0.019112445 -0.011061111
000180 34 cb e4 3c 3c b3 c3 bd 23 ef 8d 3d d8 e8 38 bc
       0.027928926 -0.095556706 0.06930377 -0.011285983
000190 e0 fc 12 3d a2 3b 40 3d 23 58 f9 3d de b5 dd bd
       0.03588569 0.04693187 0.12175014 -0.10825704
0001a0 32 ee 6d 3d 7c 59 08 3d d8 12 17 3d da 3e 64 3d
       0.05808849 0.033288464 0.036883205 0.055724002
0001b0 51 a7 da bd 70 11 c9 3c a0 cd 71 3d 61 d5 8a 3d
       -0.10676444 0.024544448 0.05903399 0.0677898
0001c0 3a 9a 58 bc 7f 5f c4 bd 96 a4 15 bc cc b9 48 3b
       -0.013220364 -0.09588527 -0.009133479 0.0030628322
0001d0 67 86 b7 3d f3 d3 ed 3a 41 a8 f2 3d 47 71 e7 bc
       0.08961182 0.0018144831 0.11848498 -0.028252257
0001e0 ea 85 b9 3d d8 85 e5 bc e8 1d 2b bd 05 ad 1f bd
       0.09058745 -0.028017923 -0.041776568 -0.038983364
0001f0 ee b5 ef bd ca 99 97 3d f2 52 91 3c 79 62 a4 3c
       -0.11704622 0.0740238 0.017739747 0.020066487
000200 3c f7 b3 bd c2 6f 8c 3d 20 01 a7 bd c1 39 d1 3d
       -0.087873906 0.068572536 -0.081545115 0.10216094
000210 58 23 5f 3b 84 b7 22 3d 6b 07 6e 3d 3c df a4 3d
       0.0034048166 0.039725795 0.058112543 0.08050391
000220 be 3f 52 3c 6d f9 88 bd 12 66 58 bd 44 0f 9b 3c
       0.01283258 -0.06688199 -0.052831717 0.018928178
000230 d4 b6 f2 bd 8c 2c c4 3c 47 ae 15 bd a0 e5 45 bc
       -0.11851278 0.023947023 -0.036543157 -0.012078673
000240 9e 81 e8 bd 9f 99 a4 3d 2f ff 2b 3d 23 86 d3 bd
       -0.113528475 0.080371134 0.04199141 -0.10328319
000250 ae b0 9f 3d 18 59 a6 ba e9 24 50 bd b0 63 0a bc
       0.07797371 -0.0012691347 -0.05081645 -0.008446619
000260 f4 c8 ae 3d 80 74 d2 bc 6b d3 12 3e 86 50 b5 3c
       0.085344225 -0.025690317 0.14338462 0.022133123
000270 a2 d5 33 bd c7 bd a7 3b b8 4b bc 3d ee 38 d4 3c
       -0.043904908 0.005119059 0.0919413 0.025906052
000280 b7 53 d0 3c be ca 88 bb 61 ab e5 3c f0 7a 98 3c
       0.025430543 -0.0041745594 0.028035821 0.018613309
000290 55 60 8e bd 9e cc 99 3c ae 7e 71 3d 61 9f 9f bb
       -0.069519676 0.018774327 0.0589587 -0.0048712944
0002a0 2b a3 a8 bd 74 b1 7e bc 3d 84 99 bd e8 e5 8c bc
       -0.08234247 -0.015545238 -0.074959256 -0.017199472
0002b0 86 8a 8b bd 4a 7c 35 bd 24 7d 29 bc 03 63 da bd
       -0.068135306 -0.044307984 -0.010344777 -0.10663416
0002c0 5d 41 e4 bc 44 05 8c 3d c0 59 46 bd 5c b0 22 3d
       -0.027863199 0.06836942 -0.048425436 0.03971897
0002d0 c6 dc 50 bd 7d 92 fb bb 3f 7d 95 3d 0f 9e dc 3c
       -0.050991796 -0.007677375 0.072992794 0.026930837
0002e0 f5 8d f0 3b b6 d1 89 3d f2 c8 32 bd c4 0c 79 3d
       0.0073411413 0.06729452 -0.043648668 0.06080319
0002f0 a0 9a d9 bc c1 7e fe bb 1c f5 56 3c 08 1c 03 bd
       -0.026562989 -0.007766575 0.013119962 -0.032009155
000300 60 34 57 bb e6 58 e0 3c 79 08 80 3d c0 64 89 3c
       -0.0032837614 0.02738614 0.06251616 0.016771674
000310 5e b2 90 3c e2 5c 9c 3d 59 0f 23 bd 3d fc d6 3b
       0.017663177 0.076349035 -0.03980956 0.006560831
000320 b2 15 01 be 2a c3 fc 3c ca 7a 8d bd da 10 62 3d
       -0.12605932 0.03085478 -0.06908186 0.055191852
000330 79 68 53 bd 32 17 e0 3b ce ca 85 bb fd ae 97 3d
       -0.051613305 0.0068387026 -0.004083014 0.07406423
000340 fb 3f b1 3d 3c 9c 3a bd d6 41 8b bd 0f b3 aa 3d
       0.086547814 -0.045559153 -0.067996666 0.08334934
000350 e9 88 54 3d 65 21 76 3d a0 e6 87 38 f9 b3 4f bd
       0.05188838 0.06009044 6.480259e-05 -0.050708745
000360 d4 d4 2d bd f0 4c 2d 3d 0a ae 7b 3d c4 19 3d bd
       -0.042439297 0.0423097 0.061445273 -0.04616715
000370 27 f8 90 bc 68 08 b9 bd 74 66 69 bc e9 e6 0f 3d
       -0.017696453 -0.090348065 -0.014245618 0.035132322
000380 04 34 d3 3c b3 f5 88 3d ca 0b 18 3d b2 35 00 3d
       0.025781639 0.066874884 0.037120618 0.031301208
000390 62 1c f3 bc 2f 39 c3 3d 17 70 28 bd 9a f0 87 bd
       -0.02967662 0.09532391 -0.041122522 -0.06637688
0003a0 ba 62 1e 3d 1d dd bf 3d 7a ed 27 3e 83 a2 87 bd
       0.03866837 0.09368346 0.16399184 -0.066227935
0003b0 df 04 07 3e 8a 99 5f bd b3 4b bc bc 21 13 56 3b
       0.13185452 -0.054589786 -0.022985315 0.003266521
0003c0 44 80 e5 bc b3 46 bd 3d 86 e3 73 bd 51 ae 46 3d
       -0.028015263 0.092420004 -0.059543155 0.048506085
0003d0 e7 0d 04 3d 7d 4a 89 3a 7d 36 9c bd 70 11 01 bd
       0.03223982 0.001047447 -0.0762758 -0.03151077
0003e0 96 43 e6 bd 0f 4b cf 3c 5e 30 cf 3b f6 3f ab bc
       -0.1124336 0.025304345 0.0063229045 -0.020904522
0003f0 a0 4c 65 3d cb 1c f6 3b 61 71 0d bd 6e 84 d4 3d
       0.05598128 0.0075107566 -0.034531955 0.103768215
